Prediksi Performa Akademik/edtech/backend/models/performance_predictor/trained_model/performance_model_shap_values.npy (npy, 9728 bytes, 1 tensors)

array f4 [100, 24]
000000 6e ce be bb ba 46 bd ba 47 f2 38 bc b4 7a d5 3a
       -0.005822948 -0.0014440634 -0.011288232 0.0016287179
000010 2d c2 0e bd 66 4e 5a 39 6b be f3 bb e2 29 e8 ba
       -0.03485315 0.00020819306 -0.007438471 -0.0017712677
000020 62 9d 59 b9 27 21 a5 bb 5d bc 9a bb 00 00 00 00
       -0.00020753362 -0.0050393525 -0.0047221617 0.0
000030 41 92 e0 3a 11 60 87 bb 8c d8 2a 3a f3 61 3a 3b
       0.0017133431 -0.004131325 0.00065172534 0.002843973
000040 c8 8d aa 3b 00 00 00 00 49 c3 b1 3d 35 d7 86 b9
       0.00520489 0.0 0.08679826 -0.00025718813
000050 84 85 fa b9 6a 97 76 3c 06 93 9d 3b 20 a3 0f ba
       -0.00047783193 0.015050748 0.0048087863 -0.00054793246
000060 8a e8 eb 3a 5c 20 1e 39 2e 8f 63 bb b0 2c 95 39
       0.0017998379 0.00015080109 -0.0034722793 0.0002845279
000070 57 c0 c0 bc cf 4d b2 ba e9 39 f7 ba b4 dc 1a 3b
       -0.023529215 -0.0013603511 -0.0018861863 0.0023630084
000080 d8 90 87 bc 4e 8c e6 ba 48 95 42 39 00 00 00 00
       -0.01654856 -0.0017589421 0.00018556893 0.0
000090 43 d2 c1 bb 6f 9d 6e bb ab 31 00 bc 50 b3 d1 3a
       -0.0059149577 -0.0036409756 -0.007824342 0.0015998874
0000a0 71 c2 10 3b 00 00 00 00 0b e1 b4 3d ae 01 ad ba
       0.0022088552 0.0 0.08831986 -0.0013199353
0000b0 74 64 b0 3a c8 09 51 3c e3 21 6c 3a 5c 58 c4 bb
       0.0013457672 0.01275868 0.0009007735 -0.0059919786
0000c0 95 25 96 3a d2 73 c8 b9 54 f3 c5 3a c6 ff 58 3a
       0.0011455292 -0.00038233266 0.0015102425 0.00082778593
0000d0 b9 c5 13 bd 76 f2 02 3a 64 40 a0 bb 82 29 3a bc
       -0.036077235 0.0004995236 -0.0048904885 -0.011362435
0000e0 14 fb de 3a da 19 32 bb b1 6b 75 39 00 00 00 00
       0.0017012083 -0.0027176053 0.00023405139 0.0
0000f0 da bd d3 bb 27 78 8a bb f0 04 94 bb 74 43 29 3a
       -0.006461841 -0.004225749 -0.00451719 0.00064568897
000100 53 cc 31 3b 00 00 00 00 46 bb ab 3d aa 41 77 3b
       0.0027129843 0.0 0.08385329 0.0037728348
000110 fb 2d 9b bb c8 30 4c 3c f6 5e 2c bc e6 30 bc ba
       -0.004735706 0.012462802 -0.010520687 -0.0014357835
000120 b6 a7 04 3b 3d 8c 17 ba 1f e6 e7 3b 9a 92 9d ba
       0.0020241565 -0.000578109 0.007076993 -0.001202184
000130 bb a3 10 bd 5c 08 68 3a ac e7 7f bb 48 82 2d 3a
       -0.035312396 0.00088513433 -0.0039048 0.00066188397
000140 0b e8 bb ba 4d e2 8e 3c 1f 57 1c ba 00 00 00 00
       -0.0014336122 0.017441893 -0.000596391 0.0
000150 e8 f5 a7 bb 3f 09 77 bb 8d 1e e1 bb 78 81 af 39
       -0.00512575 -0.003769472 -0.006870097 0.00033475063
000160 a3 08 2f 3c 00 00 00 00 bb de be 3d 8d e4 f9 b9
       0.0106832115 0.0 0.09319826 -0.00047663265
000170 e6 6b 68 b9 96 e6 53 3c 09 5e 00 bc 3b b5 8f 3c
       -0.0002216544 0.012933394 -0.00783492 0.017542472
000180 a0 47 44 ba 47 8d 27 ba 9a 40 7c 3a 7e a3 43 bb
       -0.00074874796 -0.00063915964 0.00096226635 -0.0029852088
000190 28 d3 ea bc 41 cc 04 bb f4 f9 76 bb b4 e6 5a bc
       -0.02866514 -0.0020263346 -0.0037685605 -0.013360668
0001a0 34 dc 85 3b 25 2e a3 b8 7f 70 e3 b9 00 00 00 00
       0.004085088 -7.781041e-05 -0.0004338063 0.0
0001b0 e4 aa 20 b9 3b 8a f7 ba d2 dd 55 bb 40 d7 07 bb
       -0.00015322451 -0.00188858 -0.0032633436 -0.0020727664
0001c0 c7 fa 88 3a 00 00 00 00 0e 21 a2 3d d8 08 a5 b9
       0.0010450714 0.0 0.07916461 -0.00031477842
0001d0 f2 f2 e0 b9 72 1e 43 3c 95 3a ff bb 1c d3 14 bc
       -0.00042905618 0.011909114 -0.007788966 -0.0090835355
0001e0 6e 87 84 3b 3b 75 a8 b9 cc f2 3e 3b cc 61 18 3a
       0.004044465 -0.000321308 0.0029136417 0.0005812913
0001f0 ea 2f 37 bd 25 4d f3 b9 8a f6 fc bb cf b9 22 ba
       -0.04472343 -0.0004640605 -0.0077198194 -0.0006207497
000200 d3 90 03 3c 4e 7f 77 bb 5c e3 56 ba 00 00 00 00
       0.008030134 -0.0037765088 -0.00081973313 0.0
000210 75 60 9c 3b 80 9b 83 bb 7a a5 8f bb d9 50 1d 3b
       0.0047722408 -0.00401634 -0.00438374 0.0024004488
000220 74 f0 11 3b 00 00 00 00 f3 f3 b2 3d 94 ac 18 ba
       0.0022268565 0.0 0.08737936 -0.0005824056
000230 c1 eb 53 3a 16 47 4f 3c 9b c9 28 3c d6 95 8d bb
       0.00080841413 0.012651226 0.010301973 -0.0043208404
000240 cf 50 5b 3a 2a 72 ec 39 68 13 cc 3b 62 75 a8 3a
       0.00083662284 0.00045098487 0.0062278993 0.0012852366
000250 86 27 f5 bc ec cc cd 3b 0e 09 98 3b 4d 5c f7 bc
       -0.029926073 0.006280532 0.0046397513 -0.03019538
000260 59 a3 a4 3a 3a d3 3b bb b6 53 96 bb 00 00 00 00
       0.0012560888 -0.0028659836 -0.004587616 0.0
000270 78 c4 29 3b 4c fb e9 ba 20 2e 35 39 36 9b 0d 3b
       0.0025904458 -0.0017851382 0.00017278688 0.0021607406
000280 02 97 9f 3b 00 00 00 00 c2 39 b6 3d 7a fb f9 b9
       0.0048702965 0.0 0.08897735 -0.00047680346
000290 ac 02 a2 ba 42 0b 67 3c 83 40 2e 3b f9 4f 3f 3a
       -0.0012360415 0.014101805 0.0026588745 0.00072979886
0002a0 7e 5c 07 bb 12 4a b7 ba 22 b4 b0 b9 58 1f ec bb
       -0.0020654495 -0.0013983867 -0.00033703545 -0.007205885
0002b0 a2 19 26 bd cf 06 a0 39 7d 68 cf bb 51 51 25 bb
       -0.04055179 0.0003052265 -0.0063295946 -0.002522547
0002c0 79 66 9a ba 03 3e 04 b8 ed df 06 ba 00 00 00 00
       -0.0011779807 -3.1529005e-05 -0.0005145062 0.0
0002d0 d4 c2 5e bc 4d 82 85 bb 36 2d e3 bb 2c 62 34 bc
       -0.013596255 -0.004074371 -0.00693288 -0.011009734
0002e0 6a 2e 9e ba 00 00 00 00 64 7f 8f 3d 7b 8d ab b9
       -0.0012068276 0.0 0.0700672 -0.00032721073
0002f0 b0 0f 0f 3b 19 85 34 3c 6d e7 0c bb 8a 77 03 3c
       0.002182942 0.011018061 -0.0021500245 0.008024106
000300 12 28 89 39 85 2f dd 39 04 1c 09 ba 1e 23 c3 39
       0.0002616053 0.0004218781 -0.000523031 0.00037219463
000310 20 87 c0 3d a2 65 44 ba 31 d1 ad 3a 64 fe 37 3a
       0.09400773 -0.0007491951 0.0013261196 0.0007018803
000320 94 ab 92 3b 08 08 6a 3a 52 63 1b 3b 00 00 00 00
       0.00447602 0.00089275884 0.0023710323 0.0
000330 dc 14 21 bc 87 17 54 3c 26 ac e8 3b bd 89 80 3b
       -0.009831633 0.0129450625 0.0071006 0.0039226697
000340 f5 32 b0 bb 00 00 00 00 a1 53 b4 bd 1e d9 b9 ba
       -0.0053771683 0.0 -0.088050134 -0.0014179086
000350 36 54 b2 3a 33 65 29 bc 12 ba 9d 3b 93 55 3b bc
       0.0013605419 -0.010339069 0.004813441 -0.011433977
000360 40 17 b1 3a 00 12 b0 39 85 0d 4e bb f0 9d 37 bb
       0.0013510957 0.00033582747 -0.0031441164 -0.0028017722
000370 96 58 2c bd b8 8f b2 39 da 7c 86 bb b8 94 05 bc
       -0.04207667 0.00034057884 -0.004104239 -0.008153133
000380 c0 5a 78 3b e9 1b cf ba ac 21 53 39 00 00 00 00
       0.0037895888 -0.0015801165 0.00020135072 0.0
000390 52 2b f3 3a 0b 93 96 bb ff 01 9a bb d7 68 ac ba
       0.0018552339 -0.0045951656 -0.004699945 -0.0013153803
0003a0 ee 5c cc ba 00 00 00 00 5a 7a a5 3d be c1 b2 b9
       -0.001559166 0.0 0.08079977 -0.00034095155
0003b0 a9 6e 0c ba 8a 8d 4b 3c db 1e e0 bb 9b f4 02 bc
       -0.0005357066 0.012423882 -0.0068396158 -0.007992889
0003c0 6b 66 9b ba b5 4c eb 39 66 e8 bf 3a ac 9b 00 bb
       -0.0011856084 0.00044879844 0.0014641404 -0.0019624038
0003d0 00 51 b7 bc 77 9c 6f 39 ea 49 8c ba cf 11 4c 3c
       -0.022377491 0.00022851104 -0.001070318 0.012455418
0003e0 ea 6c 8f 3a 6e 58 f4 ba 0d f2 18 ba 00 00 00 00
       0.0010942493 -0.0018642077 -0.0005834408 0.0
0003f0 d8 59 3d 3b 31 40 85 bb f5 c3 10 bc 80 73 ca ba
       0.0028892662 -0.00406649 -0.008835782 -0.0015445799
